----------------------------------------------------------------
        Layer (type)               Output Shape         Param #
================================================================
            Linear-1                [-1, 1, 10]              60
         LeakyReLU-2                [-1, 1, 10]               0
           FClayer-3                [-1, 1, 10]               0
            Linear-4                [-1, 1, 10]             110
         LeakyReLU-5                [-1, 1, 10]               0
           FClayer-6                [-1, 1, 10]               0
            Linear-7                [-1, 1, 10]             110
         LeakyReLU-8                [-1, 1, 10]               0
           FClayer-9                [-1, 1, 10]               0
           Linear-10                 [-1, 1, 3]              33
================================================================
Total params: 313
Trainable params: 313
Non-trainable params: 0
----------------------------------------------------------------
Input size (MB): 0.00
Forward/backward pass size (MB): 0.00
Params size (MB): 0.00
Estimated Total Size (MB): 0.00
----------------------------------------------------------------
2020/11/25 17:23:32
epoch: 1/50 | trn loss: 0.6616 | val loss: 0.3256 | val accuracy: 91.8189% 
…
