----------------------------------------------------------------
        Layer (type)               Output Shape         Param #
================================================================
            Linear-1                [-1, 1, 10]              60
         LeakyReLU-2                [-1, 1, 10]               0
           FClayer-3                [-1, 1, 10]               0
            Linear-4                [-1, 1, 10]             110
         LeakyReLU-5                [-1, 1, 10]               0
           FClayer-6                [-1, 1, 10]               0
            Linear-7                [-1, 1, 10]             110
         LeakyReLU-8                [-1, 1, 10]               0
           FClayer-9                [-1, 1, 10]               0
           Linear-10                [-1, 1, 10]             110
        LeakyReLU-11                [-1, 1, 10]               0
          FClayer-12                [-1, 1, 10]               0
           Linear-13                [-1, 1, 10]             110
        LeakyReLU-14                [-1, 1, 10]               0
          FClayer-15                [-1, 1, 10]               0
           Linear-16                [-1, 1, 10]             110
        LeakyReLU-17                [-1, 1, 10]               0
          FClayer-18                [-1, 1, 10]               0
           Linear-19                 [-1, 1, 3]              33
================================================================
Total params: 643
Trainable params: 643
Non-trainable params: 0
----------------------------------------------------------------
Input size (MB): 0.00
Forward/backward pass size (MB): 0.00
Params size (MB): 0.00
Estimated Total Size (MB): 0.00
----------------------------------------------------------------
2020/11/25 17:25:24
epoch: 1/50 | trn loss: 0.6332 | val loss: 0.1351 | val accuracy: 96.0911% 
…
