----------------------------------------------------------------
        Layer (type)               Output Shape         Param #
================================================================
            Linear-1                [-1, 1, 20]             120
         LeakyReLU-2                [-1, 1, 20]               0
           FClayer-3                [-1, 1, 20]               0
            Linear-4                [-1, 1, 40]             840
         LeakyReLU-5                [-1, 1, 40]               0
           FClayer-6                [-1, 1, 40]               0
            Linear-7                [-1, 1, 20]             820
         LeakyReLU-8                [-1, 1, 20]               0
           FClayer-9                [-1, 1, 20]               0
           Linear-10                 [-1, 1, 3]              63
================================================================
Total params: 1,843
Trainable params: 1,843
Non-trainable params: 0
----------------------------------------------------------------
Input size (MB): 0.00
Forward/backward pass size (MB): 0.00
Params size (MB): 0.01
Estimated Total Size (MB): 0.01
----------------------------------------------------------------
2020/11/25 20:45:44
epoch: 1/50 | trn loss: 0.2863 | val loss: 0.0886 | val accuracy: 97.4389% 
…
