----------------------------------------------------------------
        Layer (type)               Output Shape         Param #
================================================================
            Linear-1                [-1, 1, 20]             120
         LeakyReLU-2                [-1, 1, 20]               0
           FClayer-3                [-1, 1, 20]               0
            Linear-4                [-1, 1, 60]           1,260
         LeakyReLU-5                [-1, 1, 60]               0
           FClayer-6                [-1, 1, 60]               0
            Linear-7                [-1, 1, 60]           3,660
         LeakyReLU-8                [-1, 1, 60]               0
           FClayer-9                [-1, 1, 60]               0
           Linear-10                 [-1, 1, 3]             183
================================================================
Total params: 5,223
Trainable params: 5,223
Non-trainable params: 0
----------------------------------------------------------------
Input size (MB): 0.00
Forward/backward pass size (MB): 0.00
Params size (MB): 0.02
Estimated Total Size (MB): 0.02
----------------------------------------------------------------
2020/11/25 21:54:48
epoch: 1/50 | trn loss: 0.2994 | val loss: 0.0957 | val accuracy: 97.0622% 
…
