----------------------------------------------------------------
        Layer (type)               Output Shape         Param #
================================================================
            Linear-1                [-1, 1, 20]             120
         LeakyReLU-2                [-1, 1, 20]               0
           FClayer-3                [-1, 1, 20]               0
            Linear-4                [-1, 1, 20]             420
         LeakyReLU-5                [-1, 1, 20]               0
           FClayer-6                [-1, 1, 20]               0
            Linear-7                [-1, 1, 60]           1,260
         LeakyReLU-8                [-1, 1, 60]               0
           FClayer-9                [-1, 1, 60]               0
           Linear-10                [-1, 1, 60]           3,660
        LeakyReLU-11                [-1, 1, 60]               0
          FClayer-12                [-1, 1, 60]               0
           Linear-13                [-1, 1, 20]           1,220
        LeakyReLU-14                [-1, 1, 20]               0
          FClayer-15                [-1, 1, 20]               0
           Linear-16                [-1, 1, 20]             420
        LeakyReLU-17                [-1, 1, 20]               0
          FClayer-18                [-1, 1, 20]               0
           Linear-19                 [-1, 1, 3]              63
================================================================
Total params: 7,163
Trainable params: 7,163
Non-trainable params: 0
----------------------------------------------------------------
Input size (MB): 0.00
Forward/backward pass size (MB): 0.00
Params size (MB): 0.03
Estimated Total Size (MB): 0.03
----------------------------------------------------------------
2020/11/25 17:45:42
epoch: 1/50 | trn loss: 0.1297 | val loss: 0.0468 | val accuracy: 98.4367% 
…
