----------------------------------------------------------------
        Layer (type)               Output Shape         Param #
================================================================
            Linear-1                [-1, 1, 20]             120
         LeakyReLU-2                [-1, 1, 20]               0
           FClayer-3                [-1, 1, 20]               0
            Linear-4                [-1, 1, 80]           1,680
         LeakyReLU-5                [-1, 1, 80]               0
           FClayer-6                [-1, 1, 80]               0
            Linear-7                [-1, 1, 60]           4,860
         LeakyReLU-8                [-1, 1, 60]               0
           FClayer-9                [-1, 1, 60]               0
           Linear-10                 [-1, 1, 3]             183
================================================================
Total params: 6,843
Trainable params: 6,843
Non-trainable params: 0
----------------------------------------------------------------
Input size (MB): 0.00
Forward/backward pass size (MB): 0.00
Params size (MB): 0.03
Estimated Total Size (MB): 0.03
----------------------------------------------------------------
2020/11/25 22:42:01
epoch: 1/50 | trn loss: 0.2613 | val loss: 0.0979 | val accuracy: 97.0844% 
…
