----------------------------------------------------------------
        Layer (type)               Output Shape         Param #
================================================================
            Linear-1                [-1, 1, 40]             240
         LeakyReLU-2                [-1, 1, 40]               0
           FClayer-3                [-1, 1, 40]               0
            Linear-4                [-1, 1, 40]           1,640
         LeakyReLU-5                [-1, 1, 40]               0
           FClayer-6                [-1, 1, 40]               0
            Linear-7                [-1, 1, 20]             820
         LeakyReLU-8                [-1, 1, 20]               0
           FClayer-9                [-1, 1, 20]               0
           Linear-10                [-1, 1, 20]             420
        LeakyReLU-11                [-1, 1, 20]               0
          FClayer-12                [-1, 1, 20]               0
           Linear-13                [-1, 1, 80]           1,680
        LeakyReLU-14                [-1, 1, 80]               0
          FClayer-15                [-1, 1, 80]               0
           Linear-16                [-1, 1, 80]           6,480
        LeakyReLU-17                [-1, 1, 80]               0
          FClayer-18                [-1, 1, 80]               0
           Linear-19                 [-1, 1, 3]             243
================================================================
Total params: 11,523
Trainable params: 11,523
Non-trainable params: 0
----------------------------------------------------------------
Input size (MB): 0.00
Forward/backward pass size (MB): 0.01
Params size (MB): 0.04
Estimated Total Size (MB): 0.05
----------------------------------------------------------------
2020/11/25 20:09:26
…
