----------------------------------------------------------------
        Layer (type)               Output Shape         Param #
================================================================
            Linear-1                [-1, 1, 40]             240
         LeakyReLU-2                [-1, 1, 40]               0
           FClayer-3                [-1, 1, 40]               0
            Linear-4                [-1, 1, 40]           1,640
         LeakyReLU-5                [-1, 1, 40]               0
           FClayer-6                [-1, 1, 40]               0
            Linear-7                [-1, 1, 40]           1,640
         LeakyReLU-8                [-1, 1, 40]               0
           FClayer-9                [-1, 1, 40]               0
           Linear-10                [-1, 1, 40]           1,640
        LeakyReLU-11                [-1, 1, 40]               0
          FClayer-12                [-1, 1, 40]               0
           Linear-13                [-1, 1, 40]           1,640
        LeakyReLU-14                [-1, 1, 40]               0
          FClayer-15                [-1, 1, 40]               0
           Linear-16                [-1, 1, 40]           1,640
        LeakyReLU-17                [-1, 1, 40]               0
          FClayer-18                [-1, 1, 40]               0
           Linear-19                 [-1, 1, 3]             123
================================================================
Total params: 8,563
Trainable params: 8,563
Non-trainable params: 0
----------------------------------------------------------------
Input size (MB): 0.00
Forward/backward pass size (MB): 0.01
Params size (MB): 0.03
Estimated Total Size (MB): 0.04
----------------------------------------------------------------
2020/11/25 20:36:46
epoch: 1/50 | trn loss: 0.1614 | val loss: 0.0525 | val accuracy: 98.6222% 
…
