----------------------------------------------------------------
        Layer (type)               Output Shape         Param #
================================================================
            Linear-1                [-1, 1, 40]             240
         LeakyReLU-2                [-1, 1, 40]               0
           FClayer-3                [-1, 1, 40]               0
            Linear-4                [-1, 1, 60]           2,460
         LeakyReLU-5                [-1, 1, 60]               0
           FClayer-6                [-1, 1, 60]               0
            Linear-7                [-1, 1, 80]           4,880
         LeakyReLU-8                [-1, 1, 80]               0
           FClayer-9                [-1, 1, 80]               0
           Linear-10                 [-1, 1, 3]             243
================================================================
Total params: 7,823
Trainable params: 7,823
Non-trainable params: 0
----------------------------------------------------------------
Input size (MB): 0.00
Forward/backward pass size (MB): 0.00
Params size (MB): 0.03
Estimated Total Size (MB): 0.03
----------------------------------------------------------------
2020/11/26 01:18:33
epoch: 1/50 | trn loss: 0.2106 | val loss: 0.0703 | val accuracy: 97.7789% 
…
