----------------------------------------------------------------
        Layer (type)               Output Shape         Param #
================================================================
            Linear-1                [-1, 1, 40]             240
         LeakyReLU-2                [-1, 1, 40]               0
           FClayer-3                [-1, 1, 40]               0
            Linear-4                [-1, 1, 60]           2,460
         LeakyReLU-5                [-1, 1, 60]               0
           FClayer-6                [-1, 1, 60]               0
            Linear-7                [-1, 1, 40]           2,440
         LeakyReLU-8                [-1, 1, 40]               0
           FClayer-9                [-1, 1, 40]               0
           Linear-10                 [-1, 1, 3]             123
================================================================
Total params: 5,263
Trainable params: 5,263
Non-trainable params: 0
----------------------------------------------------------------
Input size (MB): 0.00
Forward/backward pass size (MB): 0.00
Params size (MB): 0.02
Estimated Total Size (MB): 0.02
----------------------------------------------------------------
2020/11/26 00:54:07
epoch: 1/50 | trn loss: 0.2897 | val loss: 0.0933 | val accuracy: 97.1333% 
…
