----------------------------------------------------------------
        Layer (type)               Output Shape         Param #
================================================================
            Linear-1                [-1, 1, 60]             360
         LeakyReLU-2                [-1, 1, 60]               0
           FClayer-3                [-1, 1, 60]               0
            Linear-4                [-1, 1, 20]           1,220
         LeakyReLU-5                [-1, 1, 20]               0
           FClayer-6                [-1, 1, 20]               0
            Linear-7                [-1, 1, 60]           1,260
         LeakyReLU-8                [-1, 1, 60]               0
           FClayer-9                [-1, 1, 60]               0
           Linear-10                 [-1, 1, 3]             183
================================================================
Total params: 3,023
Trainable params: 3,023
Non-trainable params: 0
----------------------------------------------------------------
Input size (MB): 0.00
Forward/backward pass size (MB): 0.00
Params size (MB): 0.01
Estimated Total Size (MB): 0.01
----------------------------------------------------------------
2020/11/26 02:41:16
epoch: 1/50 | trn loss: 0.2345 | val loss: 0.0772 | val accuracy: 97.6833% 
…
