----------------------------------------------------------------
        Layer (type)               Output Shape         Param #
================================================================
            Linear-1                [-1, 1, 60]             360
         LeakyReLU-2                [-1, 1, 60]               0
           FClayer-3                [-1, 1, 60]               0
            Linear-4                [-1, 1, 40]           2,440
         LeakyReLU-5                [-1, 1, 40]               0
           FClayer-6                [-1, 1, 40]               0
            Linear-7                [-1, 1, 80]           3,280
         LeakyReLU-8                [-1, 1, 80]               0
           FClayer-9                [-1, 1, 80]               0
           Linear-10                 [-1, 1, 3]             243
================================================================
Total params: 6,323
Trainable params: 6,323
Non-trainable params: 0
----------------------------------------------------------------
Input size (MB): 0.00
Forward/backward pass size (MB): 0.00
Params size (MB): 0.02
Estimated Total Size (MB): 0.03
----------------------------------------------------------------
2020/11/26 03:40:58
epoch: 1/50 | trn loss: 0.2124 | val loss: 0.0764 | val accuracy: 97.3244% 
…
