----------------------------------------------------------------
        Layer (type)               Output Shape         Param #
================================================================
            Linear-1                [-1, 1, 60]             360
         LeakyReLU-2                [-1, 1, 60]               0
           FClayer-3                [-1, 1, 60]               0
            Linear-4                [-1, 1, 80]           4,880
         LeakyReLU-5                [-1, 1, 80]               0
           FClayer-6                [-1, 1, 80]               0
            Linear-7                [-1, 1, 80]           6,480
         LeakyReLU-8                [-1, 1, 80]               0
           FClayer-9                [-1, 1, 80]               0
           Linear-10                 [-1, 1, 3]             243
================================================================
Total params: 11,963
Trainable params: 11,963
Non-trainable params: 0
----------------------------------------------------------------
Input size (MB): 0.00
Forward/backward pass size (MB): 0.01
Params size (MB): 0.05
Estimated Total Size (MB): 0.05
----------------------------------------------------------------
2020/11/26 05:16:33
…
