----------------------------------------------------------------
        Layer (type)               Output Shape         Param #
================================================================
            Linear-1                [-1, 1, 60]             360
         LeakyReLU-2                [-1, 1, 60]               0
           FClayer-3                [-1, 1, 60]               0
            Linear-4                [-1, 1, 60]           3,660
         LeakyReLU-5                [-1, 1, 60]               0
           FClayer-6                [-1, 1, 60]               0
            Linear-7                [-1, 1, 80]           4,880
         LeakyReLU-8                [-1, 1, 80]               0
           FClayer-9                [-1, 1, 80]               0
           Linear-10                [-1, 1, 80]           6,480
        LeakyReLU-11                [-1, 1, 80]               0
          FClayer-12                [-1, 1, 80]               0
           Linear-13                [-1, 1, 80]           6,480
        LeakyReLU-14                [-1, 1, 80]               0
          FClayer-15                [-1, 1, 80]               0
           Linear-16                [-1, 1, 80]           6,480
        LeakyReLU-17                [-1, 1, 80]               0
          FClayer-18                [-1, 1, 80]               0
           Linear-19                 [-1, 1, 3]             243
================================================================
Total params: 28,583
Trainable params: 28,583
Non-trainable params: 0
----------------------------------------------------------------
Input size (MB): 0.00
Forward/backward pass size (MB): 0.01
Params size (MB): 0.11
Estimated Total Size (MB): 0.12
----------------------------------------------------------------
2020/11/26 02:35:34
…
