----------------------------------------------------------------
        Layer (type)               Output Shape         Param #
================================================================
            Linear-1                [-1, 1, 80]             480
         LeakyReLU-2                [-1, 1, 80]               0
           FClayer-3                [-1, 1, 80]               0
            Linear-4                [-1, 1, 20]           1,620
         LeakyReLU-5                [-1, 1, 20]               0
           FClayer-6                [-1, 1, 20]               0
            Linear-7                [-1, 1, 80]           1,680
         LeakyReLU-8                [-1, 1, 80]               0
           FClayer-9                [-1, 1, 80]               0
           Linear-10                 [-1, 1, 3]             243
================================================================
Total params: 4,023
Trainable params: 4,023
Non-trainable params: 0
----------------------------------------------------------------
Input size (MB): 0.00
Forward/backward pass size (MB): 0.00
Params size (MB): 0.02
Estimated Total Size (MB): 0.02
----------------------------------------------------------------
2020/11/26 06:06:05
epoch: 1/50 | trn loss: 0.2015 | val loss: 0.0718 | val accuracy: 97.8522% 
…
