----------------------------------------------------------------
        Layer (type)               Output Shape         Param #
================================================================
            Linear-1                [-1, 1, 80]             480
         LeakyReLU-2                [-1, 1, 80]               0
           FClayer-3                [-1, 1, 80]               0
            Linear-4                [-1, 1, 20]           1,620
         LeakyReLU-5                [-1, 1, 20]               0
           FClayer-6                [-1, 1, 20]               0
            Linear-7                [-1, 1, 20]             420
         LeakyReLU-8                [-1, 1, 20]               0
           FClayer-9                [-1, 1, 20]               0
           Linear-10                 [-1, 1, 3]              63
================================================================
Total params: 2,583
Trainable params: 2,583
Non-trainable params: 0
----------------------------------------------------------------
Input size (MB): 0.00
Forward/backward pass size (MB): 0.00
Params size (MB): 0.01
Estimated Total Size (MB): 0.01
----------------------------------------------------------------
2020/11/26 05:29:40
epoch: 1/50 | trn loss: 0.3101 | val loss: 0.0960 | val accuracy: 97.3656% 
…
